checkpoint.pth (torch_old, 54445 bytes, 6 tensors)

fc1.weight f4 [128, 37]
0.355368 -0.36949307 -0.1030916 -0.044221707 -1.3373791 -0.016824745 0.18103126 -0.03768345
-0.16343875 -0.26005536 -0.077808544 0.23648268 0.084552206 0.12776242 -0.105605 -0.35282883
0.03490456 0.19705793 0.15230487 0.25722426 -0.053234022 -0.060330145 0.074988976 0.19370094
-0.0040813754 -0.05411789 0.14816771 -0.27048346 -0.087029256 -0.12659384 0.016172888 -0.18066832
0.12273522 0.08188237 -0.059152026 -0.02984524 0.006664984 -0.073638156 -0.32503828 0.13488479
-0.051547345 0.23785701 0.09720211 -0.09729374 -0.16610797 -0.09452339 -0.014009917 -0.3634528
-0.26162368 0.021457475 0.22514184 -0.50721663 -0.10105712 -0.79319733 0.336535 -0.7672651
-0.13080439 -0.16198339 -0.28789115 0.19978103 -0.15279272 0.025999397 0.056122936 -0.22070287
0.063358806 0.24343745 0.4713139 -0.08284545 0.069397084 -0.20049468 -0.1605133 0.010189818
-0.11836166 -0.03571111 -0.09189693 0.09740908 0.0814021 -0.32016167 -0.47408754 -0.42620018
-0.09085787 0.23876177 -0.7144357 -3.1375365 0.10946672 -0.17573324 -0.09918084 -0.6797222
-0.2185871 -0.0116154505 -0.3101732 0.1694357 -0.12621367 -0.8482357 -0.23120813 -0.3576258
-0.028136266 -0.65729535 -0.7365197 -0.0051809875 -0.5046022 0.21301098 -0.6464702 -1.0961176
-0.22330502 -0.34324268 0.13107432 -0.41668218 -0.7415704 0.10202892 0.0439213 0.22395036
0.18245347 -0.14926377 0.087559804 -0.44753116 -0.21727715 -0.0023973696 0.06146945 0.19087699
-0.17700914 -0.2696327 0.054963745 0.14076783 -0.2588645 -0.05984127 -0.15609609 0.029672228
0.2728654 -0.14338204 0.30255345 0.11037136 -0.24127413 0.057610594 -0.567166 -0.32693925
-0.12190965 0.1304194 0.31400293 -0.20765899 -0.46820003 0.0344314 -0.15334314 -0.19364595
-0.04946831 0.18760628 0.105708525 -0.06963766 0.17701036 0.10899542 0.13375282 -0.06612188
0.078265406 0.29959828 0.21818075 0.1647886 -0.04048299 -0.47736895 0.1836082 0.21088713
0.14977512 0.045729607 0.044377416 0.0986002 0.29711318 0.21926384 0.15333518 0.057008043
0.056611028 0.09722362 0.030034311 -0.03501747 0.16143203 0.17586833 0.27029458 0.22160636
0.20799252 0.13995673 0.31248775 0.1773916 0.0054872823 0.11403798 -0.19219832 0.012667518
-0.011995851 0.0970802 -0.24484316 -0.029794559 -0.27526236 -0.5264057 0.04787535 -0.33368513
0.17283295 -0.23740081 -0.42079413 0.23016617 -0.164938 0.2410379 -0.032331508 -0.2163457
0.035153843 -0.119667426 -0.0608369 0.11030184 0.44844583 -0.043123186 -0.20911446 -0.04538515
0.102146454 -0.10440031 -0.042194944 -0.25207755 0.20161004 -0.40188456 -0.058922224 -0.021678029
0.03908015 0.078829974 0.06587126 0.1134679 0.026507724 -0.020430835 -0.1625566 -0.11463706
-0.05346127 0.00034448766 0.12146329 -0.00028469122 0.15525123 0.123866454 0.18008317 0.044737216
-0.0057996297 0.058682743 0.09023077 0.017456524 0.09210534 0.08562211 0.17701344 0.06125835
0.11327792 0.10806869 0.37730095 -0.3863679 -0.8038211 -0.769097 -2.4487405 -0.00955881
0.08766959 -0.045060452 0.01578593 -0.08098687 -0.043979447 -0.046018515 -0.023402624 0.09065875
00000000: cbf2 b53e 322e bdbe b021 d3bd d221 35bd
00000010: 3d2f abbf 0cd4 89bc 4260 393e f659 1abd
00000020: 7d5c 27be fa25 85be 165a 9fbd 8428 723e
00000030: b529 ad3d 27d4 023e 6f47 d8bd fba5 b4be
00000040: 15f8 0e3d 8ec9 493e cff5 1b3e e6b2 833e
00000050: eb0b 5abd be1c 77bd d293 993d 8a59 463e
00000060: 0fbd 85bb b8aa 5dbd 47b9 173e cf7c 8abe
00000070: 653c b2bd d1a1 01be 017d 843c 1e01 39be
00000080: 9a5c fb3d f2b1 a73d 6549 72bd 017e f4bc
00000090: f065 da3b 9acf 96bd 6b6b a6be 3d1f 0a3e
000000a0: 4f23 53bd ca90 733e e611 c73d f141 c7bd
000000b0: 3518 2abe 7b95 c1bd da89 65bc 7c16 babe
000000c0: 8af3 85be 96c7 af3c 958b 663e f3d8 01bf
000000d0: 09f7 cebd fb0e 4bbf 514e ac3e 7c6b 44bf
000000e0: 96f1 05be f9de 25be 7866 93be 6693 4c3e
000000f0: b275 1cbe b0fc d43c 2ae1 653d efff 61be
00000100: 43c2 813d ab47 793e 0e50 f13e e0aa a9bd
00000110: 0f20 8e3d 7a4e 4dbe 995d 24be 32f3 263c
00000120: 9967 f2bd d045 12bd 7534 bcbd 697e c73d
00000130: 25b6 a63d 3bec a3be 9abb f2be e936 dabe
00000140: b113 babd f77d 743e 42e5 36bf 66cd 48c0
00000150: 1630 e03d 6af3 33be 531f cbbd 4602 2ebf
00000160: 4cd5 5fbe bb4e 3ebc 06cf 9ebe 8d80 2d3e
00000170: 283e 01be fa25 59bf d3c1 6cbe bb1a b7be
00000180: 077e e6bc 8244 28bf 8e8c 3cbf 46c5 a9bb
00000190: 9c2d 01bf 8d1f 5a3e 127f 25bf 954d 8cbf
000001a0: 12aa 64be 81bd afbe 5938 063e 5e57 d5be
000001b0: 8fd7 3dbf 8af4 d03d d2e6 333d 3e53 653e
000001c0: 15d5 3a3e 9ad8 18be 8e52 b33d ce22 e5be
000001d0: e77d 5ebe 301d 1dbb 64c7 7b3d 4275 433e
000001e0: e241 35be 4c0d 8abe aa21 613d 7125 103e
000001f0: e389 84be 1f1c 75bd a7d7 1fbe 2c13 f33c
00000200: 04b5 8b3e bed2 12be 49e8 9a3e 610a e23d
00000210: 9110 77be 16f9 6b3d ca31 11bf 9564 a7be
00000220: c4ab f9bd aa8c 053e fec4 a03e 8fa4 54be
00000230: eab7 efbe f107 0d3d fc05 1dbe 204b 46be
00000240: 489f 4abd dc1b 403e b67d d83d 319e 8ebd
00000250: 3442 353e fe38 df3d 80f6 083e e96a 87bd
00000260: 9d49 a03d f264 993e c66a 5f3e 58be 283e
00000270: 7ed1 25bd b469 f4be ca03 3c3e ccf2 573e
00000280: a65e 193e f84e 3b3d 18c5 353d e7ee c93d
00000290: 381f 983e b386 603e e603 1d3e 4481 693d
000002a0: f7e0 673d 2d1d c73d 840a f63c 7b6e 0fbd
000002b0: 704e 253e d416 343e 0d64 8a3e c7ec 623e
000002c0: fefb 543e d150 0f3e 65fe 9f3e 25a6 353e
000002d0: a9ce b33b bf8c e93d a3cf 44be 6c8b 4f3c
000002e0: 3f8a 44bc fcd1 c63d 2ab8 7abe b813 f4bc
000002f0: 30ef 8cbe 86c2 06bf f118 443d c7d8 aabe
00000300: 1ffb 303e 3319 73be 5472 d7be aeb0 6b3e
00000310: 82e5 28be a4d2 763e 0b6e 04bd ba89 5dbe
00000320: 7afd 0f3d 3214 f5bd 1d30 79bd eee5 e13d
00000330: b19a e53e f0a1 30bd 1a22 56be c7e5 39bd
00000340: 2932 d13d d4cf d5bd 9bd4 2cbd 4f10 81be
00000350: dd72 4e3e d0c3 cdbe 6e58 71bd 1f96 b1bc
00000360: 8212 203d 9c71 a13d 83e7 863d dc61 e83d
00000370: ba26 d93c 915e a7bc 3d75 26be d6c6 eabd
00000380: 34fa 5abd 5a9c b439 bfc1 f83d 9c42 95b9
00000390: 2efa 1e3e b2ad fd3d b967 383e 5f3e 373d
000003a0: d20a bebb 515d 703d e9ca b83d fc00 8f3c
000003b0: b9a1 bc3d a55a af3d 0343 353e 09ea 7a3d
000003c0: 41fe e73d 1e53 dd3d 972d c13e 03d2 c5be
000003d0: 38c7 4dbf 8ae3 44bf 2ab8 1cc0 8e9c 1cbc
000003e0: 1d8c b33d 4f91 38bd 7f51 813c 72dc a5bd
000003f0: cb23 34bd e97d 3cbd dcb6 bfbc 4bab b93d

fc1.bias f4 [128]
0.03918004 -0.12888037 -0.09840158 -0.20707794 0.3642124 0.03302624 0.12298561 -0.007617974
-0.21800455 -0.070090294 -0.17971429 0.029492771 -0.023500878 -0.20357408 -0.13586867 0.038104236
-0.0696146 -0.19698331 -0.24007265 -0.21474302 0.09530561 -0.12690383 -0.23625109 0.13327575
0.05369023 0.013440727 -0.17424482 -0.1555385 -0.057196606 0.10825259 -0.08912225 -0.049875755
-0.11867495 0.12195035 -0.16068193 0.10095326 -0.034330223 -0.10949462 0.07095653 0.033867434
-0.1962658 0.053157315 -0.12701079 -0.11038824 -0.107359156 0.011411496 0.023645207 -0.12528598
0.05676439 0.036561523 0.035141733 0.17819068 0.15788083 -0.017036848 0.02200454 -0.07681243
-0.28765228 -0.12724435 -0.09819811 0.11353905 0.08327813 -0.036027763 0.1582204 -0.04357132
0.02156543 0.0017603732 -0.05456893 0.04570253 -0.14884128 -0.15251909 -0.19512853 -0.024129486
-0.08134503 -0.14280476 0.013553607 -0.04143298 -0.1806412 -0.08942729 -0.11466099 -0.28940597
0.130552 0.15529607 -0.25116938 -0.123040386 0.07689692 -0.050830204 -0.032160196 0.1292038
0.022555953 0.0019131677 0.10715568 0.009211982 -0.1319541 -0.049860183 0.0004009108 0.12061222
-0.11248112 -0.058815267 -0.122674674 0.17426288 -0.039889295 -0.10584097 -0.1868805 0.086968556
0.011177527 0.07541015 -0.1578565 0.0013116258 -0.14557852 0.08929727 -0.011935362 -0.017526051
-0.06538144 -0.24462484 -0.0079876995 0.090552926 0.26680654 0.024017623 -0.20486373 -0.091953814
-0.10653507 0.39838687 -0.1722661 -0.0938594 -0.10356058 -0.041480757 0.19627213 -0.21519206
00000000: 407b 203d 37f9 03be c486 c9bd 3d0c 54be
00000010: 0c7a ba3e 8646 073d e1df fb3d 33a0 f9bb
00000020: 963c 5fbe 808b 8fbd 0607 38be d39a f13c
00000030: ea84 c0bc b975 50be 2821 0bbe 3013 1c3d
00000040: 1992 8ebd feb5 49be 9bd5 75be 98e5 5bbe
00000050: 962f c33d 14f3 01be ceeb 71be 7079 083e
00000060: 49ea 5b3d 7f36 5c3c 3c6d 32be 7c45 1fbe
00000070: fd46 6abd 89b3 dd3d ba85 b6bd 854a 4cbd
00000080: da0b f3bd 1bc1 f93d ce89 24be 95c0 ce3d
00000090: d99d 0cbd b73e e0bd a851 913d 94b8 0a3d
000000a0: e7f9 48be 7cbb 593d 1e0f 02be 3b13 e2bd
000000b0: 1edf dbbd 49f7 3a3c 98b3 c13c f84a 00be
000000c0: c781 683d 89c1 153d c7f0 0f3d 9e77 363e
000000d0: 83ab 213e dc90 8bbc dd42 b43c d64f 9dbd
000000e0: 2947 93be 584c 02be 171c c9bd 2987 e83d
000000f0: b98d aa3d d991 13bd 8704 223e d777 32bd
00000100: fca9 b03c 53bc e63a ac83 5fbd 9332 3b3d
00000110: d969 18be f72d 1cbe c6cf 47be 33ab c5bc
00000120: 3998 a6bd 693b 12be f30f 5e3c a1b5 29bd
00000130: 02fa 38be a825 b7bd 62d3 eabd 052d 94be
00000140: 6caf 053e ef05 1f3e 4699 80be 99fc fbbd
00000150: 227c 9d3d 5533 50bd 69ba 03bd 004e 043e
00000160: 43c7 b83c 41c3 fa3a 7074 db3d daed 163c
00000170: fa1e 07be 313a 4cbd 5631 d239 8a03 f73d
00000180: 805c e6bd 47e8 70bd dc3c fbbd f871 323e
00000190: f562 23bd 27c3 d8bd 9a5d 3fbe 921c b23d
000001a0: f221 373c a370 9a3d 22a5 21be dcea ab3a
000001b0: 8912 15be 7de1 b63d 898c 43bc cb92 8fbc
000001c0: b4e6 85bd ef7e 7abe d7de 02bc d073 b93d
000001d0: de9a 883e 9bc0 c43c ccc7 51be 4852 bcbd
000001e0: 0f2f dabd 5df9 cb3e 8666 30be 5b39 c0bd
000001f0: 9217 d4bd bae7 29bd 90fb 483e 4f5b 5cbe

fc2.weight f4 [64, 128]
-0.044525243 -0.07153981 0.057212543 0.01449323 -0.0054631312 0.036025085 -0.057863902 -0.0028250995
0.07109768 -0.08282204 0.03206376 -0.0052847606 -0.049715392 0.095596254 -0.0051601706 0.035269976
-0.04524851 0.044891853 0.029768305 -0.024110856 0.08660143 -0.09546171 -0.027587708 0.052099366
0.03493824 -0.066097446 0.021300009 0.049426608 -0.0049574883 0.06408502 -0.009307649 0.018904317
-0.0687466 0.012877967 0.060157925 -0.06906965 -0.041799217 -0.010446477 -0.07160334 -0.06027596
-0.0072070737 -0.059014563 -0.053654917 0.021010162 0.04148825 -0.021269958 -0.069826774 -0.08504408
-0.030703368 0.060009424 0.017772831 -0.09493237 0.017047437 -0.020655768 -0.093217164 0.011761543
-0.10362436 -0.005136336 0.0566038 -0.088783756 -0.10352534 0.11142853 0.022004683 0.027883979
0.034705795 -0.06987877 -0.08210287 -0.022595828 0.045607045 0.04987667 -0.13862993 0.009199408
-0.02536468 0.06933165 -0.024230372 0.028142871 0.0037028634 -0.10368476 0.052250743 0.040689994
-0.029503169 -0.113305345 0.028052188 0.02973345 -0.0152018275 -0.083869874 0.011315547 0.057489585
-0.07565051 -0.0508631 -0.025430592 -0.01578175 -0.058869697 -0.10593962 -0.014052448 -0.051868588
-0.07078715 0.05797351 0.040547963 0.0024995205 0.040000033 -0.05068756 0.021550188 0.06075364
0.011669699 -0.075068966 -0.027219899 0.051103942 -0.084893 0.030486284 -0.004853044 0.046858266
-0.04927855 -0.08342642 0.06546249 0.07518394 -0.07557871 -0.037347868 -0.098110914 -0.016771737
0.046141062 -0.11379294 -0.07829365 -0.013996397 0.044034973 -0.043258585 0.025295543 -0.03726298
-0.081714384 -0.18570729 0.12058032 -0.40656996 -0.050878838 -0.07288551 -0.18458553 -0.05167768
-0.06676862 -0.087657325 -0.2536622 -0.20703466 -0.05624758 0.13013758 -0.104549095 0.35341585
-0.07720595 -0.13719562 -0.4812473 -0.081037015 -0.7730396 -0.48930073 -0.22802988 0.44885007
-0.24563505 -0.36319774 -0.12842423 -0.23152015 0.10302187 -0.22865899 -0.48555687 -0.4015035
-0.17057289 0.05831977 -0.28061363 0.07339035 -0.020871572 0.16462357 0.17514016 -0.22373627
-0.28147295 0.35417873 -0.26196003 -0.12584114 -0.07993908 0.20412143 -0.5677137 -0.1459557
0.22605425 -0.40404695 -0.29818103 0.07573757 -0.31714407 0.24446128 0.26898184 0.1321926
-0.2453753 -0.36575273 -0.11518185 0.037912767 -0.14559548 0.174211 -0.05746051 -0.417038
0.31316137 -0.035626598 0.38798878 -0.10500341 0.19639368 -0.12803097 -0.52520925 -0.019629968
-0.5515853 -0.06682505 0.19243701 0.29139665 -0.53051454 0.1736754 0.065412 -0.3534069
-0.16823326 -0.4522551 -0.12313737 -0.49062815 -0.40550768 -0.54166067 -0.1279982 -0.28421983
-0.15283263 -0.64935774 -0.11725273 -0.041848693 0.11181233 0.17022574 -0.1847964 0.2095108
0.17974184 -0.19705173 0.049204584 -0.08643054 0.0610317 -0.29162258 -0.115943566 0.09966976
-0.3927223 -0.31798345 -0.21448699 0.15526022 -0.3665171 -0.34226906 0.1448624 0.07390706
0.3074361 -0.24087925 -0.43477917 -0.0909704 -0.009618781 -0.27912968 0.05719267 -0.21640241
-0.09272123 -0.041614186 0.15430777 -0.028930662 -0.010207036 0.026699984 0.15347116 0.13701268
00000000: 1a60 36bd 7783 92bd b357 6a3d 0375 6d3c
00000010: 1104 b3bb 0a8f 133d b302 6dbd 4e25 39bb
00000020: a99b 913d 9a9e a9bd 4a55 033d c92b adbb
00000030: 5ea2 4bbd f8c7 c33d a616 a9bb 4077 103d
00000040: 8056 39bd 85e0 373d a9dc f33c 2184 c5bc
00000050: 175c b13d 6e81 c3bd 9eff e1bc 2566 553d
00000060: 661b 0f3d 195e 87bd 5b7d ae3c 8e73 4a3d
00000070: 6d72 a2bb 023f 833d 1c7f 18bc 3add 9a3c
00000080: 04cb 8cbd 1cfe 523c 2868 763d 6374 8dbd
00000090: a835 2bbd b327 2bbc c6a4 92bd ede3 76bd
000000a0: 5129 ecbb 41b9 71bd 42c5 5bbd 811d ac3c
000000b0: 95ef 293d 563e aebc 5701 8fbd 972b aebd
000000c0: a185 fbbc 71cc 753d 5498 913c e76b c2bd
000000d0: 11a7 8b3c 4936 a9bc a4e8 bebd 7db3 403c
000000e0: 0239 d4bd b64e a8bb 63d9 673d 42d4 b5bd
000000f0: 1805 d4bd a434 e43d 2a43 b43c f16c e43c
00000100: aa27 0e3d 9a1c 8fbd 8d25 a8bd e31a b9bc
00000110: 74ce 3a3d 7b4b 4c3d 01f5 0dbe 1db9 163c
00000120: 97c9 cfbc c1fd 8d3d c67e c6bc e18b e63c
00000130: bdab 723b ad58 d4bd e004 563d 8daa 263d
00000140: a1b0 f1bc a20c e8bd b4cd e53c 9093 f33c
00000150: 1611 79bc f8c3 abbd d864 393c 337a 6b3d
00000160: a8ee 9abd d355 50bd d153 d0bc bb48 81bc
00000170: 5a21 71bd dff6 d8bd 3d3c 66bc 2874 54bd
00000180: daf8 90bd a275 6d3d 9f15 263d ffce 233b
00000190: 13d7 233d c29d 4fbd 058a b03c cfd8 783d
000001a0: 4432 3f3c c2bd 99bd 44fc debc 5e52 513d
000001b0: 62dc adbd 5fbe f93c 4906 9fbb 74ee 3f3d
000001c0: 4ed8 49bd 79db aabd 3311 863d 0afa 993d
000001d0: 03c9 9abd 14fa 18bd 60ee c8bd e264 89bc
000001e0: 69fe 3c3d 460c e9bd 6c58 a0bd 2551 65bc
000001f0: 045e 343d ea2f 31bd 9938 cf3c 11a1 18bd
00000200: df59 a7bd 0d2a 3ebe d1f2 f63d f029 d0be
00000210: 5466 50bd 0045 95bd fd03 3dbe faab 53bd
00000220: fcbd 88bd af85 b3bd 03e0 81be e500 54be
00000230: dd63 66bd c942 053e d61d d6bd ecf2 b43e
00000240: 271e 9ebd 027d 0cbe 0c66 f6be bcf6 a5bd
00000250: ece5 45bf a085 fabe aa80 69be adcf e53e
00000260: c187 7bbe 0ef5 b9be a481 03be 9e13 6dbe
00000270: 21fd d23d 9525 6abe e99a f8be de91 cdbe
00000280: a9aa 2ebe b6e0 6e3d 97ac 8fbe ae4d 963d
00000290: dcfa aabc 1593 283e f157 333e 1f1b 65be
000002a0: 391d 90be ea56 b53e a01f 86be 80dc 00be
000002b0: 1ab7 a3bd 3505 513e af55 11bf 6975 15be
000002c0: c47a 673e 3edf cebe 2fab 98be 4d1c 9b3d
000002d0: b560 a2be 0f54 7a3e fdb7 893e 7f5d 073e
000002e0: aa43 7bbe f143 bbbe 76e4 ebbd 6b4a 1b3d
000002f0: fb16 15be 5e64 323e b65b 6bbd 0186 d5be
00000300: b056 a03e 32ed 11bd 77a6 c63e 070c d7bd
00000310: 6d1b 493e 8d1a 03be 1d74 06bf 07cf a0bc
00000320: b234 0dbf 92db 88bd 350e 453e f131 953e
00000330: cdcf 07bf f7d7 313e baf6 853d c0f1 b4be
00000340: 5745 2cbe fb8d e7be 722f fcbd 9d33 fbbe
00000350: b49e cfbe 46aa 0abf f611 03be 4385 91be
00000360: 2880 1cbe 4f3c 26bf 3322 f0bd 8969 2bbd
00000370: ddfd e43d a84f 2e3e 443b 3dbe 008a 563e
00000380: 3f0e 383e eec7 49be bf8a 493d 7f02 b1bd
00000390: 60fc 793d 8e4f 95be d273 edbd a91f cc3d
000003a0: e612 c9be bace a2be 7aa2 5bbe 89fc 1e3e
000003b0: 21a8 bbbe e43d afbe cf56 143e 965c 973d
000003c0: 4468 9d3e 0da9 76be 609b debe b04e babd
000003d0: 1798 1dbc 16ea 8ebe dc42 6a3d 9898 5dbe
000003e0: a1e4 bdbd a373 2abd db02 1e3e ffff ecbc
000003f0: 693b 27bc edb9 da3c 8b27 1d3e 0d4d 0c3e

fc2.bias f4 [64]
-0.08799855 -0.03891277 0.18957199 0.09396562 -0.00034737893 -0.026821865 0.59936774 -0.09540631
0.17707595 0.083280094 -0.16897596 0.13029556 0.2640354 -0.048195537 0.13401562 -0.14046581
-0.03642743 -0.019049285 0.66097647 0.013175398 -0.09916207 0.5413621 0.17035422 -0.09134433
0.14739364 0.15754116 -0.040128075 -0.0040016845 -0.017707797 0.1392328 0.087930925 0.6705556
0.23743755 0.17658925 0.08453732 0.15003985 0.04442186 -0.18482004 0.014954201 -0.09341227
0.12030477 -0.16482265 -0.09409395 0.02111499 -0.06550455 -0.071752384 0.12404316 0.6058059
-0.21875647 -0.0465706 0.23378474 -0.067864284 -0.03333901 0.17463379 0.07636643 -0.093705356
0.23131265 0.16283084 0.04598432 -0.16450019 0.091459945 0.030313518 0.07501912 0.0843973
00000000: 9538 b4bd ff62 1fbd 291f 423e 0c71 c03d
00000010: 6920 b6b9 87b9 dbbc 2a70 193f 6264 c3bd
00000020: 6653 353e c18e aa3d 0908 2dbe 336c 053e
00000030: a62f 873e af68 45bd 643b 093e 45d6 0fbe
00000040: ee34 15bd 3f0d 9cbc c135 293f a0dd 573c
00000050: 7c15 cbbd b596 0a3f 5671 2e3e bc12 bbbd
00000060: 5cee 163e 7852 213e 565d 24bd 9020 83bb
00000070: f10f 91bc 0b93 0e3e 2115 b43d 88a9 2b3f
00000080: d422 733e d0d3 343e e721 ad3d 0ca4 193e
00000090: b2f3 353d 7741 3dbe 7702 753c ef4e bfbd
000000a0: 5962 f63d 45c7 28be 54b4 c0bd 58f9 ac3c
000000b0: 4027 86bd eaf2 92bd 570a fe3d 1816 1b3f
000000c0: b201 60be d0c0 3ebd 4465 6f3e 6efc 8abd
000000d0: 7c8e 08bd 33d3 323e 0166 9c3d 98e8 bfbd
000000e0: 39dd 6c3e 21bd 263e 0e5a 3c3d bd72 28be
000000f0: 5a4f bb3d 0e54 f83c a0a3 993d 7ed8 ac3d

fc3.weight f4 [4, 64]
0.046768464 -0.45578977 0.013042543 0.19462284 -0.3272618 0.4199799 0.20182979 0.07551554
0.01166932 0.15447162 -0.31693804 0.03355295 0.0063320966 -0.017587874 0.035336908 -0.03575191
-0.13570893 0.03703841 0.23358001 -0.7513254 0.0505682 0.16484624 0.21975586 0.48659346
0.3665892 0.14816351 0.05307535 -0.06540524 0.059733484 0.094793126 0.1684087 0.24665377
-0.08174005 0.26071674 0.121268846 0.08444601 0.061636217 -0.075574584 -0.036590125 0.0813446
0.23636384 -0.09791219 -0.69668794 -0.24567306 0.2978155 -0.45940635 -0.012143702 0.15118404
-0.19515392 -0.6370456 0.16283962 0.108343475 0.16816793 0.08551176 0.20200686 -0.0382617
0.089125276 0.17036928 0.028096424 -0.2822883 0.1760592 0.009951841 -0.10890473 0.42293432
-0.0061442163 -0.17696762 0.1347254 0.15781249 0.06892879 0.41176847 0.2267019 0.15206921
0.02797437 -0.28054386 -0.615292 0.13166688 0.102881014 -0.00087934814 0.044786967 0.20476694
-0.22309071 0.14978407 0.20278883 0.1279858 -0.22018887 0.19411808 0.2359575 0.50327814
0.24158503 0.17673601 0.0114913955 -0.05463525 -0.11633649 0.13226008 0.14952125 0.16705753
0.062582314 0.31778967 0.35086513 0.12910362 0.110099874 -0.05892388 -0.06350564 0.1313842
0.21742997 -0.1254787 0.08692106 -0.19709824 0.44174734 -0.042319626 0.18502036 0.2399186
-0.15253818 -0.1580352 0.16880783 0.034444053 0.2685163 0.11276008 0.18603855 0.10013552
-0.019721106 0.17336594 -0.47682527 -0.21913087 0.16696118 -0.1026914 0.025690455 0.34020594
0.011997586 -0.12664129 0.16463201 0.15117767 0.19154134 -0.02284962 0.13933367 -0.082845606
0.14448255 -0.46618882 0.07129767 -0.008557541 0.099892594 0.40127987 0.16302304 -0.4679752
-0.25018704 -0.46864888 0.22954924 0.2801466 0.3408605 0.20783652 0.2785968 0.26319948
0.12949845 0.13213222 -0.011530227 0.03540204 -0.38458693 0.15338086 0.077135496 0.25116515
0.12709816 0.28531718 0.2849643 0.21763514 0.14803226 0.009785627 -0.4001095 0.53094137
-0.08481684 -0.20298323 -0.05409386 0.2668369 0.4280836 -0.16411477 -0.050573215 0.1392215
-0.118850484 -0.3302354 0.109705865 -0.65460557 -0.8308568 0.13457139 0.23789664 0.018316891
0.102263995 0.18143216 -0.17459595 -0.26427704 0.059165932 -0.034931608 0.042646 0.12110252
-0.05364151 -0.393283 0.029285073 0.21259908 -0.13272978 0.35986698 0.17033844 0.3539936
0.12255028 -0.0126042925 -0.286681 0.23214044 0.12241567 0.10928394 0.11446281 -0.48672748
-0.47360283 0.17532963 0.24722698 0.021243848 -0.14971603 0.067983754 0.27093792 0.41474122
0.13096873 0.22523718 -0.09139611 0.038273256 -0.3010456 0.043567747 -0.011631402 0.24893521
0.0057614013 0.21300912 -0.2506632 0.1507674 0.20908485 0.18612845 0.21353884 0.55038357
-0.073854096 0.018089887 0.07815564 -0.28423485 -0.18226843 -0.1361803 0.21117473 0.21597679
-0.17872915 -0.28753203 0.1493037 0.063793175 -0.17338878 0.004055642 0.21517523 0.309412
0.05777037 0.14848445 -0.4518889 -0.055766225 0.15334524 0.08241759 -0.013898695 0.33212295
00000000: 4a90 3f3d 475d e9be 64b0 553c 364b 473e
00000010: dc8e a7be 9b07 d73e 78ac 4e3e e4a7 9a3d
00000020: ad30 3f3c cf2d 1e3e b445 a2be d16e 093d
00000030: 7a7d cf3b 7214 90bc 6fbd 103d 9870 12bd
00000040: 48f7 0abe 96b5 173d 992f 6f3e dd56 40bf
00000050: 9a20 4f3d 74cd 283e ae07 613e c722 f93e
00000060: 94b1 bb3e 2db8 173e 8a65 593d 2ff3 85bd
00000070: 19ab 743d e622 c23d 5573 2c3e ce92 7c3e
00000080: 5467 a7bd aa7c 853e cd5b f83d 08f2 ac3d
00000090: 4276 7c3d d9c6 9abd 87df 15bd ff97 a63d
000000a0: 5d09 723e 3086 c8bd 245a 32bf b891 7bbe
000000b0: 467b 983e 4f37 ebbe 61f6 46bc fdcf 1a3e
000000c0: 6ed6 47be 6c15 23bf 6ebf 263e 2fe3 dd3d
000000d0: 3734 2c3e ca20 af3d e3da 4e3e 4db8 1cbd
000000e0: 5087 b63d 4975 2e3e 792a e63c 1888 90be
000000f0: dd48 343e 0c0d 233c 7109 dfbd d98a d83e
00000100: 6c55 c9bb 0037 35be 75f5 093e 9999 213e
00000110: 8a2a 8d3d 51d3 d23e 8b24 683e 08b8 1b3e
00000120: 822a e53c 72a3 8fbe c783 1dbf afd3 063e
00000130: 48b3 d23d 0e84 66ba 8a72 373d 6dae 513e
00000140: e471 64be ff60 193e e0a7 4f3e b60e 033e
00000150: 3179 61be e4c6 463e d89e 713e d6d6 003f
00000160: 1162 773e 49fa 343e 6846 3c3c 36c9 5fbd
00000170: d341 eebd 306f 073e 191c 193e 2111 2b3e
00000180: 282b 803d 54b5 a23e 98a4 b33e bd33 043e
00000190: 0b7c e13d 2b5a 71bd 3f0f 82bd 9489 063e
000001a0: f6a5 5e3e 7d7d 00be ab03 b23d 1fd4 49be
000001b0: b52c e23e 5857 2dbd fa75 3d3e 39ad 753e
000001c0: f832 1cbe fbd3 21be f6db 2c3e 3515 0d3d
000001d0: f87a 893e c2ee e63d e480 3e3e da13 cd3d
000001e0: 288e a1bc d786 313e 7122 f4be d863 60be
000001f0: dff7 2a3e de4f d2bd ca74 d23c 792f ae3e
00000200: 8691 443c 41ae 01be 4b95 283e 52ce 1a3e
00000210: 6a23 443e 202f bbbc 7cad 0e3e f5aa a9bd
00000220: 3cf3 133e 4db0 eebe 8304 923d ee34 0cbc
00000230: 7d94 cc3d 8e74 cd3e 83ef 263e 729a efbe
00000240: 8418 80be bff2 efbe f50e 6b3e 606f 8f3e
00000250: 4485 ae3e 19d3 543e 3da4 8e3e 15c2 863e
00000260: 3e9b 043e ab4d 073e 47e9 3cbc bb01 113d
00000270: 94e8 c4be df0f 1d3e 37f9 9d3d b898 803e
00000280: 0526 023e 1815 923e d7e6 913e bfdb 5e3e
00000290: c595 173e e553 203c 27db ccbe c6eb 073f
000002a0: 74b4 adbd d6da 4fbe 8691 5dbd d99e 883e
000002b0: c62d db3e b40d 28be dc25 4fbd 1590 0e3e
000002c0: e267 f3bd 9d14 a9be 78ad e03d 3b94 27bf
000002d0: 08b3 54bf 15cd 093e 2d9b 733e 4e0d 963c
000002e0: c96f d13d 5ac9 393e 48c9 32be 524f 87be
000002f0: fa57 723d 7214 0fbd 92ad 2e3d 9904 f83d
00000300: 33b7 5bbd 645c c9be 40e7 ef3c 93b3 593e
00000310: 51ea 07be 7c40 b83e 336d 2e3e a63e b53e
00000320: a4fb fa3d 3c82 4ebc dac7 92be 39b6 6d3e
00000330: 11b5 fa3d 42d0 df3d 7a6b ea3d 5834 f9be
00000340: 127c f2be 9c89 333e 1229 7d3e 9407 ae3c
00000350: 294f 19be 113b 8b3d 60b8 8a3e f658 d43e
00000360: ab1c 063e 93a4 663e e22d bbbd 6bc4 1c3d
00000370: a622 9abe 1874 323d a391 3ebc dfe8 7e3e
00000380: 23ca bc3b 101f 5a3e ed56 80be c562 1a3e
00000390: 571a 563e 7598 3e3e eda9 5a3e f0e5 0c3f
000003a0: d140 97bd 3e31 943c 1010 a03d 3b87 91be
000003b0: 93a4 3abe d972 0bbe 303e 583e 0529 5d3e
000003c0: c604 37be 6637 93be 12e3 183e ffa5 823d
000003d0: d48c 31be 31e5 843b e556 5c3e 406b 9e3e
000003e0: a0a0 6c3d 4f0c 183e fb5d e7be 206b 64bd
000003f0: 8906 1d3e 8eca a83d 5ab7 63bc 050c aa3e

fc3.bias f4 [4]
0.5242263 0.3744119 0.46873346 0.44932282
00000000: b233 063f ebb2 bf3e d5fd ef3e a40d e63e
